…
2020-04-10 21:07:55.374162: I tensorflow/core/common_runtime/gpu/gpu_device.cc:984] 0:   N 
2020-04-10 21:07:55.374275: I tensorflow/core/common_runtime/gpu/gpu_device.cc:1097] Created TensorFlow device (/job:localhost/replica:0/task:0/device:GPU:0 with 10230 MB memory) -> physical GPU (device: 0, name: GeForce RTX 2080 Ti, pci bus id: 0000:81:00.0, compute capability: 7.5)
Training model cnn_rand, fold 7, not augmented
_________________________________________________________________
Layer (type)                 Output Shape              Param #   
=================================================================
reshape (Reshape)            (None, 32000, 1)          0         
_________________________________________________________________
conv1d (Conv1D)              (None, 15969, 16)         1040      
_________________________________________________________________
batch_normalization (BatchNo (None, 15969, 16)         64        
_________________________________________________________________
max_pooling1d (MaxPooling1D) (None, 1996, 16)          0         
_________________________________________________________________
conv1d_1 (Conv1D)            (None, 983, 32)           16416     
_________________________________________________________________
batch_normalization_1 (Batch (None, 983, 32)           128       
_________________________________________________________________
max_pooling1d_1 (MaxPooling1 (None, 122, 32)           0         
_________________________________________________________________
conv1d_2 (Conv1D)            (None, 54, 64)            32832     
_________________________________________________________________
batch_normalization_2 (Batch (None, 54, 64)            256       
_________________________________________________________________
conv1d_3 (Conv1D)            (None, 24, 128)           65664     
_________________________________________________________________
batch_normalization_3 (Batch (None, 24, 128)           512       
_________________________________________________________________
conv1d_4 (Conv1D)            (None, 11, 256)           131328    
_________________________________________________________________
batch_normalization_4 (Batch (None, 11, 256)           1024      
_________________________________________________________________
max_pooling1d_2 (MaxPooling1 (None, 2, 256)            0         
_________________________________________________________________
flatten (Flatten)            (None, 512)               0         
_________________________________________________________________
dense (Dense)                (None, 128)               65664     
_________________________________________________________________
dropout (Dropout)            (None, 128)               0         
_________________________________________________________________
dense_1 (Dense)              (None, 64)                8256      
_________________________________________________________________
dropout_1 (Dropout)          (None, 64)                0         
_________________________________________________________________
dense_2 (Dense)              (None, 10)                650       
=================================================================
Total params: 323,834
Trainable params: 322,842
Non-trainable params: 992
_________________________________________________________________
None
Dataset: (7894,) (7894, 10)
Training...
Train on 28614 samples, validate on 3089 samples
Epoch 1/100
  100/28614 [..............................] - ETA: 18:16 - loss: 0.0601
…
