Loading modules...

Due to MODULEPATH changes the following have been reloaded:
  1) openmpi/2.0.1

Running python script...
Training model cnn_rand16k, fold 2, augmented
_________________________________________________________________
Layer (type)                 Output Shape              Param #   
=================================================================
reshape (Reshape)            (None, 16000, 1)          0         
_________________________________________________________________
conv1d (Conv1D)              (None, 7969, 16)          1040      
_________________________________________________________________
re_lu (ReLU)                 (None, 7969, 16)          0         
_________________________________________________________________
batch_normalization (BatchNo (None, 7969, 16)          64        
_________________________________________________________________
max_pooling1d (MaxPooling1D) (None, 996, 16)           0         
_________________________________________________________________
conv1d_1 (Conv1D)            (None, 483, 32)           16416     
_________________________________________________________________
re_lu_1 (ReLU)               (None, 483, 32)           0         
_________________________________________________________________
batch_normalization_1 (Batch (None, 483, 32)           128       
_________________________________________________________________
max_pooling1d_1 (MaxPooling1 (None, 60, 32)            0         
_________________________________________________________________
conv1d_2 (Conv1D)            (None, 23, 64)            32832     
_________________________________________________________________
re_lu_2 (ReLU)               (None, 23, 64)            0         
_________________________________________________________________
batch_normalization_2 (Batch (None, 23, 64)            256       
_________________________________________________________________
conv1d_3 (Conv1D)            (None, 8, 128)            65664     
_________________________________________________________________
re_lu_3 (ReLU)               (None, 8, 128)            0         
_________________________________________________________________
batch_normalization_3 (Batch (None, 8, 128)            512       
_________________________________________________________________
flatten (Flatten)            (None, 1024)              0         
_________________________________________________________________
dense (Dense)                (None, 128)               131200    
_________________________________________________________________
dropout (Dropout)            (None, 128)               0         
_________________________________________________________________
re_lu_4 (ReLU)               (None, 128)               0         
_________________________________________________________________
dense_1 (Dense)              (None, 64)                8256      
_________________________________________________________________
dropout_1 (Dropout)          (None, 64)                0         
_________________________________________________________________
re_lu_5 (ReLU)               (None, 64)                0         
_________________________________________________________________
dense_2 (Dense)              (None, 10)                650       
_________________________________________________________________
softmax (Softmax)            (None, 10)                0         
=================================================================
Total params: 257,018
Trainable params: 256,538
Non-trainable params: 480
_________________________________________________________________
None
Dataset: (7844,) (7844, 10)
Training...
/usr/local/gcc-6_3_0/openmpi-2_0_1/python/3.6.6/lib/python3.6/site-packages/tensorflow/python/framework/dtypes.py:523: FutureWarning: Passing (type, 1) or '1type' as a synonym of type is deprecated; in a future version of numpy, it will be understood as (type, (1,)) / '(1,)type'.
…
