Loading modules...
Lmod has detected the following error: Swap failed: "intel" is not loaded.



Running python script...
Training model cnn_rand, fold 2, augmented
_________________________________________________________________
Layer (type)                 Output Shape              Param #   
=================================================================
reshape (Reshape)            (None, 32000, 1)          0         
_________________________________________________________________
conv1d (Conv1D)              (None, 15969, 16)         1040      
_________________________________________________________________
batch_normalization (BatchNo (None, 15969, 16)         64        
_________________________________________________________________
max_pooling1d (MaxPooling1D) (None, 1996, 16)          0         
_________________________________________________________________
conv1d_1 (Conv1D)            (None, 983, 32)           16416     
_________________________________________________________________
batch_normalization_1 (Batch (None, 983, 32)           128       
_________________________________________________________________
max_pooling1d_1 (MaxPooling1 (None, 122, 32)           0         
_________________________________________________________________
conv1d_2 (Conv1D)            (None, 54, 64)            32832     
_________________________________________________________________
batch_normalization_2 (Batch (None, 54, 64)            256       
_________________________________________________________________
conv1d_3 (Conv1D)            (None, 24, 128)           65664     
_________________________________________________________________
batch_normalization_3 (Batch (None, 24, 128)           512       
_________________________________________________________________
conv1d_4 (Conv1D)            (None, 11, 256)           131328    
_________________________________________________________________
batch_normalization_4 (Batch (None, 11, 256)           1024      
_________________________________________________________________
max_pooling1d_2 (MaxPooling1 (None, 2, 256)            0         
_________________________________________________________________
flatten (Flatten)            (None, 512)               0         
_________________________________________________________________
dense (Dense)                (None, 128)               65664     
_________________________________________________________________
dropout (Dropout)            (None, 128)               0         
_________________________________________________________________
dense_1 (Dense)              (None, 64)                8256      
_________________________________________________________________
dropout_1 (Dropout)          (None, 64)                0         
_________________________________________________________________
dense_2 (Dense)              (None, 10)                650       
=================================================================
Total params: 323,834
Trainable params: 322,842
Non-trainable params: 992
_________________________________________________________________
None
Dataset: (7844,) (7844, 10)
Training...
Epoch 1/100
2020-04-14 21:08:02.039485: I tensorflow/core/platform/cpu_feature_guard.cc:141] Your CPU supports instructions that this TensorFlow binary was not compiled to use: AVX2 FMA
…
