Loading modules...

Due to MODULEPATH changes the following have been reloaded:
  1) openmpi/2.0.1

Running python script...
Training model test, fold 1, not augmented
_________________________________________________________________
Layer (type)                 Output Shape              Param #   
=================================================================
reshape (Reshape)            (None, 128, 128, 1)       0         
_________________________________________________________________
conv2d (Conv2D)              (None, 124, 124, 24)      624       
_________________________________________________________________
re_lu (ReLU)                 (None, 124, 124, 24)      0         
_________________________________________________________________
max_pooling2d (MaxPooling2D) (None, 31, 62, 24)        0         
_________________________________________________________________
conv2d_1 (Conv2D)            (None, 27, 58, 48)        28848     
_________________________________________________________________
re_lu_1 (ReLU)               (None, 27, 58, 48)        0         
_________________________________________________________________
flatten (Flatten)            (None, 75168)             0         
_________________________________________________________________
dense (Dense)                (None, 32)                2405408   
_________________________________________________________________
re_lu_2 (ReLU)               (None, 32)                0         
_________________________________________________________________
dense_1 (Dense)              (None, 10)                330       
_________________________________________________________________
softmax (Softmax)            (None, 10)                0         
=================================================================
Total params: 2,435,210
Trainable params: 2,435,210
Non-trainable params: 0
_________________________________________________________________
None
Dataset: (50,) (50, 10)
Preprocessing...
Training...
/usr/local/gcc-6_3_0/openmpi-2_0_1/python/3.6.6/lib/python3.6/site-packages/tensorflow/python/framework/dtypes.py:523: FutureWarning: Passing (type, 1) or '1type' as a synonym of type is deprecated; in a future version of numpy, it will be understood as (type, (1,)) / '(1,)type'.
…
